src/data/models/best_model.pt (torch_old, 26041 bytes, 6 tensors)

conv1.weight f4 [32, 4, 12]
0.045026753 -0.13381426 0.084079586 0.10342824 -0.061010554 -0.1747577 0.0048880163 -0.0069071823
0.01587601 -0.036283858 -0.2870446 -0.0691482 0.1763265 0.12369428 -0.17034559 0.06631163
0.052934375 0.090130486 0.08256099 0.022756511 0.11801435 0.08399714 0.030778676 0.11493236
-0.18059766 0.17882504 0.040549196 -0.26309374 -0.15609287 -0.09283965 -0.11634006 -0.20628378
0.06994876 -0.26045352 -0.21326618 0.04467897 -0.1526059 -0.071675226 -0.16983823 -0.27036104
-0.09528353 -0.006854483 -0.10414916 -0.2775698 -0.23121513 0.034964785 -0.017257595 -0.20887472
-0.1090267 0.11703375 -0.14334828 -0.21314989 -0.271786 0.17244187 0.13573909 -0.2906965
-0.3073754 0.041970424 0.043353137 -0.16876352 -0.18600903 -0.07547864 0.13610674 0.16770232
-0.04874099 -0.2509085 0.02859415 0.19575632 -0.28212908 0.019716874 0.093356356 0.21958436
0.04731036 -0.14433907 0.014280588 -0.31196314 0.2025981 -0.14274465 -0.23746645 -0.11203615
0.16536278 -0.37441424 -0.4175762 -0.12647076 -0.060430773 -0.020767165 -0.012198516 -0.2362008
-0.14326593 -0.22362633 -0.2987749 -0.4040342 0.020501254 -0.397575 -0.29546437 -0.13340172
-0.17315756 -0.029636165 0.10920155 -0.21719313 0.05561188 0.18710566 0.009704296 0.06604954
0.13228682 0.03705096 -0.0036935885 -0.03095351 0.19327506 -0.0480393 0.004970507 -0.18289404
0.11393691 0.10062401 0.043884646 -0.009519719 0.02334391 -0.036121666 -0.097230345 0.03722401
0.020910172 0.052099958 -0.02033178 0.15056318 -0.054560162 0.08919989 -0.090850204 -0.1798686
0.07061435 0.012793862 -0.029594814 0.12466218 0.056566913 -0.07198737 0.12241832 0.16930309
0.047260884 -0.0056451326 0.1320905 0.12643333 0.08034642 -0.1394924 0.20654164 -0.17595367
-0.026571084 -0.19133215 -0.03182811 0.053325497 0.061520588 0.08964024 -0.1183286 0.14789347
0.055210408 -0.15398636 -0.23729186 0.14783141 -0.18624593 0.15729566 0.09751647 -0.107293844
-0.011900249 0.1396495 -0.010202736 -0.11199775 0.0886445 0.22594833 -0.25340828 -0.06606327
-0.1725994 -0.061691005 0.040258523 -0.04495253 -0.09694558 -0.27290958 0.1683918 -0.16411161
-0.054325864 -0.20288461 0.17163481 -0.21036403 -0.065420695 -0.15623151 0.0894346 0.0051068906
-0.03993345 0.00706801 -0.143198 0.07397059 0.08774121 -0.13255726 0.19153266 -0.046618767
-0.016074102 0.21462198 0.04084557 0.042598106 0.03784094 -0.039628256 0.15341699 -0.23017633
-0.19521938 0.18078892 -0.14033483 0.00024677272 -0.15071411 0.030144067 0.03776546 0.14667325
-0.05056849 -0.035632074 0.023406044 0.16366006 -0.07013283 -0.090259604 0.11092216 -0.026488757
0.15317151 -0.17621228 -0.08656734 0.017066196 -0.019276535 -0.022118067 0.033850815 -0.07235576
0.052123133 0.016731048 0.04198553 0.065492116 -0.07981912 -0.0884467 -0.07931984 0.0617236
-0.16801256 -0.017688336 0.09313555 -0.040174156 0.2337991 -0.16849329 -0.054527953 -0.15964253
0.0009773414 -0.13665421 0.13227233 0.0456936 -0.12245286 0.15683162 0.21504612 -0.19872074
-0.07950653 -0.006245172 -0.13574834 0.05990699 -0.016342914 0.11445375 -0.21981882 -0.097307235
00000000: f96d 383d 9b06 09be eb31 ac3d 2fd2 d33d
00000010: 34e6 79bd aff3 32be a72b a03b a555 e2bb
00000020: 680e 823c 629e 14bd 83f7 92be 929d 8dbd
00000030: ef8e 343e 6d53 fd3d 136f 2ebe 64ce 873d
00000040: b7d1 583d 5596 b83d bc15 a93d dd6b ba3c
00000050: 82b1 f13d b106 ac3d 9023 fc3c a861 eb3d
00000060: 98ee 38be e91d 373e ea16 263d 39b4 86be
00000070: cfd6 1fbe b722 bebd b343 eebd 0e3c 53be
00000080: 4c41 8f3d 2a5a 85be 7362 5abe 4c01 373d
00000090: b944 1cbe 76ca 92bd 13ea 2dbe c36c 8abe
000000a0: 0324 c3bd 929b e0bb 284c d5bd a11d 8ebe
000000b0: a9c3 6cbe 3c37 0f3d cd5f 8dbc 41e3 55be
000000c0: 6449 dfbd 64af ef3d e4c9 12be f743 5abe
000000d0: 8927 8bbe 9a94 303e 30ff 0a3e 2cd6 94be
000000e0: 4f60 9dbe 2ee9 2b3d 0f93 313d 58d0 2cbe
000000f0: 2779 3ebe 8c94 9abd 915f 0b3e 28ba 2b3e
00000100: a2a4 47bd 1477 80be 473e ea3c 5874 483e
00000110: 3973 90be 4885 a13c 9e31 bf3d b9da 603e
00000120: 82c8 413d 9fcd 13be 21f9 693c a2b9 9fbe
00000130: e075 4f3e a72b 12be 682a 73be 3673 e5bd
00000140: dc54 293e 39b3 bfbe 8ccc d5be 8d81 01be
00000150: 4286 77bd e71f aabc 49dc 47bc 9fde 71be
00000160: 4eb4 12be 4dfe 64be 06f9 98be 92dd cebe
00000170: 3ff2 a73c f38e cbbe 1b47 97be 769a 08be
00000180: 3750 31be 8bc7 f2bc 10a5 df3d e067 5ebe
00000190: 48c9 633d a098 3f3e c4fe 1e3c fb44 873d
000001a0: 3276 073e bfc2 173d 2210 72bb 3792 fdbc
000001b0: e6e9 453e dbc4 44bd a3df a23b 9348 3bbe
000001c0: c157 e93d f613 ce3d 63c0 333d 98f8 1bbc
000001d0: ba3b bf3c 50f4 13bd b420 c7bd 3478 183d
000001e0: cf4b ab3c c466 553d d58e a6bc 3c2d 1a3e
000001f0: 7a7a 5fbd 6fae b63d ac0f babd 792f 38be
00000200: 429e 903d 599d 513c d370 f2bc e34e ff3d
00000210: b5b2 673d 1d6e 93bd 75b6 fa3d ca5d 2d3e
00000220: a194 413d cefa b8bb bb42 073e bd77 013e
00000230: aa8c a43d 19d7 0ebe a77f 533e 332d 34be
00000240: 9aab d9bc 93ec 43be 315e 02bd d66b 5a3d
00000250: 03fd 7b3d 4d95 b73d 4456 f2bd 6371 173e
00000260: 4f24 623d 9aae 1dbe a3fc 72be 1e61 173e
00000270: 41b7 3ebe 1d12 213e b7b6 c73d e0bc dbbd
00000280: 43f9 42bc 4700 0f3e 6029 27bc 145f e5bd
00000290: 3f8b b53d 005f 673e bbbe 81be 2e4c 87bd
000002a0: e6bd 30be b5af 7cbd 1fe6 243d 2520 38bd
000002b0: 678b c6bd ceba 8bbe e66e 2c3e e00c 28be
000002c0: cc84 5ebd fcc0 4fbe 09c1 2f3e ab69 57be
000002d0: 49fb 85bd 27fb 1fbe 7d29 b73d b457 a73b
000002e0: 4291 23bd c49a e73b 7fa2 12be e57d 973d
000002f0: aab1 b33d 17bd 07be 2321 443e 52f3 3ebd
00000300: d6ad 83bc ddc5 5b3e af4d 273d 5a7b 2e3d
00000310: 1aff 1a3d 3d51 22bd 5819 1d3e 58b3 6bbe
00000320: 97e7 47be bb20 393e efb3 0fbe 4661 8139
00000330: cd54 1abe b1f0 f63c f4af 1a3d 8331 163e
00000340: e820 4fbd f0f2 11bd 08be bf3c 8196 273e
00000350: cda1 8fbd 07da b8bd 282b e33d f3fe d8bc
00000360: fed8 1c3e fe70 34be 384a b1bd 68ce 8b3c
00000370: d3e9 9dbc f330 b5bc 27a7 0a3d 422f 94bd
00000380: 117f 553d 8d0f 893c 05f9 2b3d bb20 863d
00000390: 3578 a3bd 8b23 b5bd 7172 a2bd e3d1 7c3d
000003a0: 7c0b 2cbe 21e7 90bc dabd be3d a88d 24bd
000003b0: 0869 6f3e 8189 2cbe b458 5fbd 5579 23be
000003c0: 231a 803a 15ef 0bbe 6672 073e 3629 3b3d
000003d0: 91c8 fabd 7898 203e 0d35 5c3e 737d 4bbe
000003e0: 52d4 a2bd 4da4 ccbb 9d01 0bbe 0861 753d
000003f0: 93e1 85bc ba66 ea3d 2f18 61be 0449 c7bd

conv1.bias f4 [32]
-0.13555953 -0.040738955 -0.050379995 -0.00031187446 0.11105898 0.10445897 0.13325232 0.017678302
-0.050997984 -0.056779277 0.06763433 0.10015989 -0.12533908 0.1561743 -0.17005537 0.02609026
-0.12083946 -0.038544036 -0.10314699 0.09660556 -0.08865407 0.1355345 0.09213956 -0.03833963
-0.040336393 -0.13984533 0.110787824 -0.080536336 0.12920515 0.07131956 -0.076823786 0.06860135
00000000: 1ed0 0abe e4dd 26bd 415b 4ebd 1583 a3b9
00000010: e472 e33d 96ee d53d 4c73 083e 16d2 903c
00000020: 43e3 50bd 6391 68bd de83 8a3d a120 cd3d
00000030: e358 00be 28ec 1f3e ff22 2ebe 3ebb d53c
00000040: ae7a f7bd 5ae0 1dbd bb3e d3bd 23d9 c53d
00000050: 4490 b5bd 8ec9 0a3e aab3 bc3d 040a 1dbd
00000060: c637 25bd 9d33 0fbe bae4 e23d 3cf0 a4bd
00000070: 5b4e 043e fd0f 923d ca55 9dbd dd7e 8c3d

fc1.weight f4 [16, 288]
-0.133508 -0.1392195 0.02297719 -0.018957973 -0.0765225 -0.045246914 -0.13117582 -0.08963809
-0.092871875 -0.22585396 -0.12655874 -0.24713457 -0.22731791 -0.27329603 -0.28047186 -0.17860617
-0.035306223 -0.31385732 0.05521317 0.07385596 0.11476272 0.058958422 0.14724371 0.13156015
0.0928684 0.13800943 0.12044092 -0.037896693 -0.108042344 0.03725347 -0.0037015832 0.01390418
-0.04098193 -0.03916277 -0.057090588 -0.1529326 -0.050219808 0.07924754 0.05890822 0.062393416
0.036689535 0.042996764 -0.034692798 0.020831736 0.06008146 0.15492648 0.05264174 0.123549916
0.046019778 0.09062206 0.07934552 0.14687641 0.041133206 0.17558056 0.054906227 0.07540013
-0.01308389 0.03329948 0.08632336 0.0031132651 0.06832156 0.12424041 0.0618556 0.05897642
0.060147718 0.053059272 0.06703567 0.008238411 0.03692782 0.05302719 0.12393487 0.04826742
0.1073948 0.10260985 0.03283709 0.029285293 0.066821426 0.1052935 0.093690924 0.17344834
0.07218489 -0.09797457 -0.02132811 0.014582613 0.025608262 0.005426473 -0.06530722 0.03412934
-0.044237744 0.0016645014 0.20065519 0.11540627 0.09389075 -0.017598663 0.058747046 0.05486498
0.05889278 0.09283748 0.058629327 -0.08677033 -0.1749034 -0.083115086 -0.04356802 -0.13174608
-0.04121309 -0.016731078 -0.18676256 -0.22893445 -0.16715084 -0.14211915 -0.13948165 -0.1214614
-0.08134341 -0.11253986 -0.12123954 -0.14839686 -0.28875056 0.029227218 -0.04488084 -0.08050222
-0.036119185 0.04174226 0.015827956 -0.014602536 0.09341767 0.11569806 -0.18923669 -0.08597555
-0.082209535 -0.16187358 -0.04216252 -0.049516674 -0.12875655 -0.19439827 -0.06364945 -0.07831884
0.025676817 0.023803195 -0.01968147 -0.046393782 0.043107975 0.03864618 -0.06812167 0.05825549
0.015709484 6.371357e-05 0.033831507 0.0920724 -0.03458782 0.08959335 0.08665317 0.06800416
0.024612062 -0.07190394 0.008778069 -0.056918226 0.021579092 -0.2172485 -0.16195047 -0.056808215
-0.12552948 0.0013018192 0.13138562 0.09097664 0.0520711 0.13803828 0.12384006 0.13436672
0.09658058 0.06178871 0.18621062 -0.018037887 -0.047737617 0.02311603 0.043321017 0.060591273
0.0065893983 -0.033232395 0.0040337113 -0.03661109 -0.12049599 -0.11038131 -0.05819742 -0.08640873
-0.033740684 -0.101712115 -0.11179288 -0.1159635 -0.09727391 -0.011932208 -0.054450143 -0.03124162
-0.035150953 -0.07687917 -0.04469094 -0.032299556 -0.054413397 -0.040975604 -0.06701175 -0.02719602
-0.06703438 -0.0981274 -0.084375486 0.00034272042 -0.085089885 -0.040017795 0.0012087566 -0.04146713
-0.0711396 0.07310508 0.0073824218 0.014821588 -0.004016495 0.020668035 -0.062851585 -0.104383245
0.045313142 0.055118144 0.118227355 0.053059954 0.09011029 0.063220695 0.13868299 0.18039994
0.07622169 -0.12031447 -0.05417788 -0.02395951 -0.056634918 -0.020170547 -0.029516734 -0.026978841
-0.017151628 -0.089990914 -0.13947329 -0.048957996 -0.0047568404 -0.04304819 -0.0125643015 -0.0036938095
0.00944659 -0.023385538 -0.056848485 0.139966 0.10410791 0.14046134 0.11403953 0.09262192
0.17805785 0.08287173 0.12410653 0.19976309 0.0073136846 -0.012565902 -0.0063533816 -0.005409868
00000000: 52b6 08be 8e8f 0ebe a93a bc3c c04d 9bbc
00000010: d4b7 9cbd d454 39bd f452 06be 2d94 b7bd
00000020: 9c33 bebd 4346 67be 9d98 01be d810 7dbe
00000030: 07c6 68be 75ed 8bbe 029a 8fbe 89e4 36be
00000040: 429d 10bd e8b1 a0be 3427 623d cb41 973d
00000050: b808 eb3d 637e 713d 0ec7 163e b4b7 063e
00000060: ca31 be3d 5852 0d3e bba9 f63d 9039 1bbd
00000070: 4e45 ddbd 1897 183d 4396 72bb 5cce 633c
00000080: abdc 27bd 2469 20bd d2d7 69bd 5d9a 1cbe
00000090: 49b3 4dbd 894c a23d bf49 713d 3d90 7f3d
000000a0: c447 163d 601d 303d 091a 0ebd 51a7 aa3c
000000b0: fa17 763d 0ca5 1e3e dd9e 573d bd07 fd3d
000000c0: 3c7f 3c3d 0f98 b93d e77f a23d c566 163e
000000d0: 4b7b 283d 64cb 333e 5ae5 603d 626b 9a3d
000000e0: d05d 56bc 0965 083d 4dca b03d ec07 4c3b
000000f0: 2dec 8b3d c271 fe3d 4c5c 7d3d 4291 713d
00000100: 745d 763d ae54 593d ff49 893d 66fa 063c
00000110: a041 173d 0a33 593d 91d1 fd3d 0fb4 453d
00000120: cef1 db3d 1d25 d23d 2f80 063d b6e7 ef3c
00000130: acd9 883d 1ea4 d73d 07e1 bf3d 719c 313e
00000140: acd5 933d e4a6 c8bd 4ab8 aebc e9eb 6e3c
00000150: 6bc8 d13c 8ed0 b13b cbbf 85bd 35cb 0b3d
00000160: a332 35bd 662b da3a 8e78 4d3e 1f5a ec3d
00000170: cb49 c03d 122b 90bc bea0 703d 1aba 603d
00000180: 8e39 713d 9421 be3d 4e25 703d a5b4 b1bd
00000190: e019 33be 3e38 aabd 6174 32bd 72e8 06be
000001a0: 0fcf 28bd 9d0f 89bc af3e 3fbe cb6d 6abe
000001b0: 9729 2bbe af87 11be 47d4 0ebe c1c0 f8bd
000001c0: 6097 a6bd 4c7b e6bd 704c f8bd 59f5 17be
000001d0: 1dd7 93be eb6d ef3c f9d4 37bd 59de a4bd
000001e0: b6f1 13bd eff9 2a3d a1a9 813c 7a3f 6fbc
000001f0: c351 bf3d 1bf3 ec3d 43c7 41be f313 b0bd
00000200: 795d a8bd 30c2 25be 9bb2 2cbd ffd1 4abd
00000210: c2d8 03be 5710 47be a55a 82bd a165 a0bd
00000220: 3058 d23c ebfe c23c 093b a1bc 6807 3ebd
00000230: fd91 303d 754b 1e3d 6083 8bbd 4f9d 6e3d
00000240: 2db1 803c f69d 8538 e892 0a3d 7490 bc3d
00000250: f5ab 0dbd b87c b73d 3877 b13d c445 8b3d
00000260: 3c9f c93c 5f42 93bd e4d1 0f3c 1623 69bd
00000270: a3c6 b03c 6476 5ebe 58d6 25be bbaf 68bd
00000280: cd8a 00be cea1 aa3a f489 063e f651 ba3d
00000290: 8148 553d e859 0d3e db9f fd3d 6e97 093e
000002a0: 0acc c53d 2916 7d3d ffad 3e3e 31c4 93bc
000002b0: 8588 43bd d45d bd3c 6171 313d 8e2e 783d
000002c0: e1eb d73b b11e 08bd 392d 843b 83f5 15bd
000002d0: 9ac6 f6bd 990f e2bd 6b60 6ebd 0ff7 b0bd
000002e0: ac33 0abd 714e d0bd aaf3 e4bd 467e edbd
000002f0: 8b37 c7bd 4f7f 43bc 1d07 5fbd 6dee ffbc
00000300: 72fa 0fbd d472 9dbd d90d 37bd 8a4c 04bd
00000310: 95e0 5ebd 09d6 27bd 753d 89bd 30ca debc
00000320: 5249 89bd 05f7 c8bd 0ecd acbd 28af b339
00000330: 9b43 aebd b3e9 23bd 246f 9e3a 70d9 29bd
00000340: a3b1 91bd 1eb8 953d 3ee8 f13b 3fd6 723c
00000350: cd9c 83bb 0350 a93c 55b8 80bd e2c6 d5bd
00000360: 469a 393d 90c3 613d 2f21 f23d 6555 593d
00000370: be8b b83d da79 813d ea02 0e3e c3ba 383e
00000380: 1e1a 9c3d 6f67 f6bd a0e9 5dbd bc46 c4bc
00000390: 04fa 67bd b43c a5bc 14cd f1bc bb02 ddbc
000003a0: 9281 8cbc 284d b8bd 16d2 0ebe 2e88 48bd
000003b0: 45df 9bbb 4d53 30bd 80da 4dbc d713 72bb
000003c0: dfc5 1a3c 0793 bfbc f5d9 68bd 3f53 0f3e
000003d0: 8736 d53d 19d5 0f3e 8f8d e93d 90b0 bd3d
000003e0: cc54 363e a7b8 a93d 902b fe3d b28e 4c3e
000003f0: a2a7 ef3b 37e1 4dbc 0730 d0bb 4345 b1bb

fc1.bias f4 [16]
0.019402033 -0.051380526 -0.00929878 -0.0066682165 0.039666194 -0.021663561 0.06979761 -0.031585615
0.043301232 0.047101915 -0.03642884 -0.02960422 0.0087202955 -0.035365794 -0.008593563 -0.022313945
00000000: 03f1 9e3c 6374 52bd e959 18bc 0e81 dabb
00000010: 0579 223d c877 b1bc 0df2 8e3d eb5f 01bd
00000020: a25c 313d f0ed 403d 6836 15bd 8d84 f2bc
00000030: 92df 0e3c b9db 10bd 04cc 0cbc bccb b6bc

fc2.weight f4 [2, 16]
0.35887828 0.23607737 0.0022343872 -0.28593713 -0.2780546 -0.21146126 0.23583579 0.10847265
-0.43388498 -0.029524216 0.15247425 -0.3105505 0.18258214 -0.19753559 0.44688824 -0.46380147
-0.39696133 -0.1860176 0.2618151 0.2522175 0.35261223 0.49478433 -0.26009798 -0.11201868
0.090585425 0.0079363305 0.1569868 0.44861495 -0.08705496 0.3722139 -0.4449773 0.15096667
00000000: e5be b73e 44be 713e cc6e 123b 5a66 92be
00000010: 2c5d 8ebe 4d89 58be f07e 713e e926 de3d
00000020: 2c26 debe c5dc f1bc 3622 1c3e 7a00 9fbe
00000030: d0f6 3a3e c546 4abe 89ce e43e 6377 edbe
00000040: 843e cbbe 667b 3ebe a10c 863e a722 813e
00000050: 9789 b43e 5f54 fd3e 902b 85be 0d6a e5bd
00000060: da84 b93d 6207 023c 26c1 203e dcb0 e53e
00000070: df49 b2bd d292 be3e 11d4 e3be 0297 1a3e

fc2.bias f4 [2]
0.054511305 -0.1940942
00000000: 3f47 5f3d a1c0 46be
