src/data/models/best_model.pt (torch_old, 26041 bytes, 6 tensors)

conv1.weight f4 [32, 4, 12]
000000 61 65 46 be 50 8a 95 3c aa 3a c6 3a 6b 4c af 3c
       -0.1937461 0.01825443 0.0015123684 0.021398744
000010 0c 52 53 bb 88 0d 79 be e2 53 46 be 71 a2 9c be
       -0.0032244949 -0.24321568 -0.19367936 -0.30592683
000020 c7 b9 98 3d 1d 8e af 3d 1c 56 53 bd 35 5d c9 bd
       0.07457309 0.08572028 -0.051595792 -0.09832231
000030 eb 61 74 bd 4f 20 31 bd 7c bc 9f 3d 18 40 68 be
       -0.059663694 -0.043243703 0.077996224 -0.226807
000040 bf 15 b5 bc 0f 8c 15 3e 26 05 39 3e 8d a2 02 3e
       -0.022105096 0.1460421 0.1806837 0.1275732
000050 56 ae bf bd 11 a7 70 bd 25 d6 48 3e a1 98 99 be
       -0.09359424 -0.058753077 0.1961294 -0.2999926
000060 fe 44 a0 bd ff 4b 40 3e 1c 3c 4b 3d e3 aa ae 3c
       -0.07825659 0.1877899 0.04961787 0.02132172
000070 46 c6 2a be d5 32 4f 3c 13 9b 1a be 24 be 0b 3e
       -0.16677198 0.012646397 -0.15098219 0.13646752
000080 45 15 c9 bd 39 95 f0 3c 90 26 38 be 2c 24 0e 3e
       -0.0981851 0.02936803 -0.1798346 0.13880986
000090 4c 87 17 be 60 4e 09 bd af 29 e4 bc ee cf 47 bc
       -0.14797705 -0.03352201 -0.027851908 -0.01219557
0000a0 b5 25 5d be 17 6e 11 bd 39 59 93 bd 3b 05 75 be
       -0.21596415 -0.03550538 -0.07194752 -0.23927777
0000b0 d2 24 65 be ee 04 43 bd 80 f0 91 bd 8e 8e 72 3e
       -0.22377327 -0.047612123 -0.0712595 0.23687193
0000c0 46 89 0d be 82 0e a6 bc d0 92 00 bd e1 20 c3 3d
       -0.13821897 -0.02027059 -0.03139001 0.095277555
0000d0 f3 3c 5e be 07 9d 3a 3d a4 5b 69 bd 30 fa e9 bb
       -0.21702938 0.04555991 -0.05697216 -0.0071404204
0000e0 6f f9 f8 3d 24 a3 60 be c3 09 a4 be d1 65 b9 bd
       0.12156951 -0.21937233 -0.32038698 -0.09052623
0000f0 df ad 32 be 2b fd b2 3d 4e 0f 6f bc ca f8 cb 3d
       -0.17449139 0.08739694 -0.014591051 0.09959562
000100 6c ff bb 3d f5 b8 00 3e bb 10 a0 3d f1 e9 b6 bd
       0.09179577 0.12570556 0.07815691 -0.089313395
000110 a8 a8 07 be 34 ab 6e 3e 72 09 86 3d 43 44 ed bc
       -0.13247931 0.23307496 0.0654477 -0.028963214
000120 6c 37 1a 3e 6c 83 73 be 2b f5 c6 3c c1 a2 76 be
       0.15060204 -0.23780602 0.024286827 -0.24085523
000130 5f f6 94 3d 33 6c ac bd ec 0d e0 3d 3c c3 15 3e
       0.07273554 -0.08419075 0.109401554 0.14625257
000140 93 19 33 be dc 1f 35 bb 52 06 c4 3c 4c 91 4f 3d
       -0.17490225 -0.0027637398 0.023928795 0.050675675
000150 e8 d6 f0 bc 85 74 da bb 4b 3b d8 bd 0a ee f3 3d
       -0.02939935 -0.0066667222 -0.10558184 0.11910637
000160 dc a8 c5 3d 22 d9 af 3a 9c 24 61 bd de b2 63 be
       0.09651348 0.0013416151 -0.054966554 -0.22236201
000170 d8 39 78 3d cb 36 74 bd 3e 32 8f 3d 34 36 18 be
       0.06060204 -0.059622567 0.06992005 -0.14864427
000180 7f 44 e5 3b c0 18 35 be 0e d5 3e bc 1f 64 fc bd
       0.0069966908 -0.17685223 -0.011647476 -0.12323784
000190 a7 bb 93 3d 7d f5 da 3c 30 f7 91 bc 09 36 96 3d
       0.07213526 0.026728386 -0.017818063 0.07334525
0001a0 cc 92 b9 bc 60 a6 e7 bc 09 93 a9 3d 68 e8 77 bd
       -0.022653006 -0.028277576 0.08279998 -0.060524374
0001b0 57 d1 2c bc f5 00 32 3e c5 9e 5c bd 4b 68 06 bd
       -0.010547957 0.17383178 -0.053862352 -0.032814305
0001c0 f0 ca 3b 3e 52 25 2f be ab 60 8d 3d c7 0e 04 be
       0.18339133 -0.1710408 0.069032036 -0.12896262
0001d0 6c 49 5c be e0 cb 2e be b1 5c be bd b9 07 54 3e
       -0.21512383 -0.1706996 -0.09295023 0.20706071
0001e0 f8 e8 9e bd f7 65 73 be 3c a1 05 bd 8b b9 9c 3d
       -0.07759279 -0.23769365 -0.03262447 0.07652577
0001f0 41 52 37 be 28 c9 ca 3b ee a6 36 be 29 d0 fe bd
       -0.17902471 0.0061885305 -0.17837116 -0.12442047
000200 27 a2 8a 3b b0 b9 39 3d a3 19 6d 3e a8 0b af bd
       0.004230756 0.0453431 0.23154311 -0.08547145
000210 ab b7 86 bd 70 21 8e bc d8 35 f9 bd cc d1 b0 bd
       -0.06578001 -0.017349929 -0.12168473 -0.086337656
000220 4f 9e f1 3d d9 15 45 3e 6e 70 21 3c 37 84 17 be
       0.11797773 0.19246615 0.0098534655 -0.1479653
000230 e7 b0 0b 3d c5 ea 23 3d 1f b3 97 3c dc 70 f1 bc
       0.034104254 0.040018816 0.018518029 -0.02947276
000240 2b ce c7 bd 3d 96 43 be 13 9f c6 3d 50 c9 be 3d
       -0.0975612 -0.1910028 0.0969831 0.09315741
000250 c0 d4 60 ba c6 bf 82 be a0 56 02 3e ed 20 e3 3d
       -0.0008576624 -0.25536937 0.12728357 0.110902645
000260 90 a1 1a be 0d 64 5c be 81 8d c3 3d d9 25 85 bd
       -0.15100694 -0.21522541 0.09548474 -0.065013595
000270 f0 b9 8e 3b 7c bb 92 bd e8 79 6e be 44 24 84 bc
       0.0043556616 -0.07164666 -0.23288691 -0.016130574
000280 d1 52 8a 3d a2 09 5e be 78 10 3f bc 62 e2 0e 3e
       0.06754077 -0.21683362 -0.011661641 0.13953546
000290 20 21 e3 3d cf 25 29 be b0 8c 07 3e d1 af bb bc
       0.110903025 -0.16518329 0.13237262 -0.022910984
0002a0 86 77 35 be e1 a0 2b 3e 0e 70 6d bd 0e a9 57 be
       -0.17721376 0.16760589 -0.05796819 -0.21060583
0002b0 be b7 84 be a4 2e a8 3d eb f2 11 be 3d 16 34 be
       -0.25921434 0.08212021 -0.14252822 -0.17586608
0002c0 cd ad 81 bd 77 37 3f bd f0 8f 96 be 5e cb 0f be
       -0.06331978 -0.046683755 -0.2940669 -0.14042422
0002d0 0f 68 50 be 61 e8 63 3d e2 d4 b7 3a 96 2c b9 3d
       -0.20352195 0.055641536 0.0014025236 0.09041707
0002e0 e3 8b 06 be c9 c2 bd ba 95 8f e4 3d ef 25 24 be
       -0.131393 -0.0014477606 0.111601986 -0.16030096
0002f0 aa 5f 6c bd a4 20 16 3e 3e a4 02 be b2 90 3b bd
       -0.05770842 0.14660889 -0.12757966 -0.04579229
000300 6a 4a 68 3d 39 7d 0b be 1c 08 65 3d 92 79 52 3d
       0.05671159 -0.13621987 0.055915937 0.05138547
000310 73 a1 0b 3e de 7f a3 bd 62 13 dd bd 81 0f 65 3e
       0.13635807 -0.07983373 -0.107947126 0.22369196
000320 b1 c2 fe bc 93 fe 32 bc 6a 3c 8b 3d d4 de 07 bc
       -0.031098695 -0.010924953 0.067986324 -0.008292872
000330 b2 a9 81 bd 52 0b aa 3d 80 88 74 bc 45 f4 85 3d
       -0.06331195 0.083029404 -0.014925122 0.06540731
000340 0f c8 4a be 14 e2 64 bd 40 ca c1 3d 13 59 ea bd
       -0.19802879 -0.055879667 0.09462404 -0.11442771
000350 37 e7 e6 bc 2e b8 b9 3d 8b ae 02 3e ea ee cd 3c
       -0.028186424 0.090683326 0.12761895 0.025138337
000360 8f 15 39 bc 40 b8 2e 3d e4 e3 00 3e 5e ea b6 bc
       -0.011296644 0.042656183 0.12586933 -0.022328552
000370 48 a9 bd 3a 1b ba 7f ba 10 f0 0b bc 57 89 73 3d
       0.0014470005 -0.000975521 -0.008541122 0.05945715
000380 31 70 27 3e 72 5d d0 bc cf 43 8b bd 6a 3a 4e bd
       0.16351391 -0.025435183 -0.06800043 -0.050348677
000390 81 b2 9b bd 98 d1 1c 3e 16 16 90 bd 64 49 25 3e
       -0.07602406 0.15314329 -0.070354626 0.16141278
0003a0 35 33 e3 3d 24 49 26 3e 94 68 b8 3d 1d bc 80 bc
       0.11093751 0.16238838 0.09004322 -0.0157147
0003b0 9c 84 1f 3e 19 48 32 3e 4d 60 a8 3c 5f a6 81 3a
       0.1557793 0.17410316 0.020553732 0.0009891501
0003c0 eb 2d b1 bd f1 88 0f be 08 a8 d0 3d be eb 77 3e
       -0.08651336 -0.14017083 0.101882994 0.24211022
0003d0 5a 0f 31 be d1 34 07 bd a0 a3 91 bb 79 4d 39 be
       -0.17291012 -0.033009354 -0.0044445544 -0.1809596
0003e0 cf cd 56 3e 46 83 27 be 8a cc e9 bd 61 cf d8 bd
       0.20976947 -0.1635867 -0.11415966 -0.105864294
0003f0 34 a2 fd bc 02 1b 26 3d 1c 35 43 be 74 7e 92 be
       -0.030961134 0.0405531 -0.19063228 -0.286121

conv1.bias f4 [32]
000000 8d fc f6 bc b0 1b 0d be ef e3 de 3d dc f9 8f 3d
       -0.030149722 -0.13780093 0.10883319 0.07030079
000010 63 34 77 bd 73 70 39 3d 19 fc 34 bb c8 91 65 3d
       -0.060352694 0.045273256 -0.0027616082 0.05604723
000020 ed 1b c0 3d 9c 85 25 bd 18 33 2b bd c5 e2 c6 bd
       0.093803264 -0.040410623 -0.041796774 -0.097112216
000030 2c bd ff bd e5 11 fc 3d 05 b6 34 bd 5b 8d 16 be
       -0.124872535 0.123081006 -0.0441189 -0.1470236
000040 db c5 fb 3d 85 3e 8e bd 78 2e dc bd 80 e1 a2 bd
       0.12293597 -0.069455184 -0.10751051 -0.07953167
000050 dd dc 0e bc 4d b2 e9 3c d2 95 be bd df 74 a3 bd
       -0.00871965 0.028527403 -0.0930592 -0.07981276
000060 88 d6 a5 3d 4b 9f f8 3d 73 ec c6 bd 3e 43 18 3d
       0.08097559 0.12139758 -0.09713068 0.037173502
000070 a2 4e 2e 3d 80 f0 01 be be 74 b4 3d 8e 1d 09 3e
       0.04255546 -0.126894 0.08811329 0.1339018

fc1.weight f4 [16, 288]
000000 f3 6b 68 bd 8b e9 20 3e a1 eb bd 3d 5e 01 c2 3d
       -0.056743573 0.1571409 0.09273458 0.09472917
000010 c5 a4 3a 3d d4 0b 06 3e 40 28 6a 3c ac 55 c2 3c
       0.045567293 0.1309045 0.014291823 0.023722492
000020 9e 51 80 3e 90 4e b3 3d dd 96 eb 3d fb ef ae 3d
       0.2506227 0.08755219 0.11503384 0.085418664
000030 16 5f ce 3d f6 e5 5d 3d 22 25 ff 3d 7b 58 9d 3c
       0.1007673 0.054174386 0.124582544 0.01920723
000040 db ce 1e 3e 5a e8 bb 3d 78 e2 15 be 1a 85 5a bd
       0.15508597 0.09175177 -0.14637172 -0.05334959
000050 16 a8 f4 3c 64 30 8c 3d be b0 4d 3b ea d8 26 3c
       0.029865306 0.06845167 0.0031385864 0.010183552
000060 ce 24 cd 3b fb 6a be bd 77 cc 91 bd ea 50 92 3d
       0.006260491 -0.09297749 -0.07119077 0.071443394
000070 fd 8c ab 3d 38 82 3d 3d a0 95 db 3d c4 18 1e 3e
       0.08376501 0.046266764 0.10721898 0.15439135
000080 ba 78 25 3e d0 32 1c 3e d4 8e 84 bc 7e f4 f2 3d
       0.16159335 0.15253758 -0.016181387 0.118630394
000090 72 b7 40 bd 39 dc a1 bc 26 95 b0 bc ce 22 12 bd
       -0.047049947 -0.01975833 -0.021555495 -0.035677724
0000a0 20 da 36 bd 18 6f a4 3a e6 00 89 bc f8 05 86 bd
       -0.044641614 0.0012545316 -0.016724061 -0.06544107
0000b0 37 81 84 bd 54 75 3c bd 3e 24 77 3d 90 34 b4 3d
       -0.06469958 -0.04601033 0.060337298 0.08799088
0000c0 43 36 4f 3d b8 51 17 3e c6 8f 70 3c 84 71 2a 3d
       0.050588857 0.14777267 0.014682716 0.041612163
0000d0 c3 5c 6a 3d 13 2a b3 bd 51 f0 6f 3d 02 e5 6e 3d
       0.05721737 -0.087482594 0.058578793 0.058323868
0000e0 cb 8b 8d 3d f6 85 38 3d 30 fc 3d 3d 58 84 08 bc
       0.06911429 0.04504963 0.046383083 -0.008332334
0000f0 8b de 20 3a bb 0f d2 bc f8 d5 2b 3d 61 de bf bd
       0.0006136677 -0.025642266 0.041952103 -0.09368587
000100 e7 1e c5 bd 67 73 98 bc dc 06 37 bd fd 24 e5 bd
       -0.09625035 -0.018609716 -0.044684276 -0.111886956
000110 a2 fb cf bd 1e 64 36 3d 4f 99 81 bd fc 5d a5 bd
       -0.10155417 0.044529073 -0.063280694 -0.08074567
000120 88 b6 28 3c 81 5d 7a 3d 15 41 c7 bc 8c a2 6e 3d
       0.010297425 0.06112433 -0.024323026 0.058260486
000130 0c a3 a4 bb c6 7d 56 3c 75 13 52 3d 87 4c 97 3d
       -0.0050243195 0.01309151 0.051288087 0.07387643
000140 00 77 87 3c 54 8e b0 bb 62 49 03 3d a7 eb 56 3c
       0.016536236 -0.0053880606 0.032052405 0.013117707
000150 6b 4b 87 3d 4b 38 c7 3c d6 c6 68 bd 51 7d dc bc
       0.06606182 0.024318835 -0.05683025 -0.026915224
000160 e0 36 0b bd d4 b3 7d bd e2 aa 07 bd f1 5c 9e bc
       -0.03398788 -0.061939076 -0.03312195 -0.019331427
000170 fb 13 fa bd dd 4d 79 bc ef 51 b0 bd 04 e7 08 3c
       -0.12210842 -0.015216318 -0.086093776 0.00835586
000180 60 24 70 bb b0 52 83 3c 27 d9 ea bd 89 c5 9d 3c
       -0.0036642775 0.01603064 -0.114672 0.019259231
000190 4d ff 99 bc 3f a6 c6 3d 08 00 37 3d 05 0d 56 bd
       -0.018798495 0.09699678 0.044677764 -0.05225851
0001a0 75 e8 7a 3d 1f ef 69 3d d1 bb 1a 3d 6c 5e 6a bd
       0.061256845 0.05711281 0.037776772 -0.057218954
0001b0 dc 2c 8a 3e d9 6f a6 3d 5e 8e cf 3d 75 6a 6e 3e
       0.2698735 0.08126802 0.10134576 0.23282798
0001c0 92 8c 1b 3e 18 d8 6a 3e d7 a6 96 3d b7 3f e0 3d
       0.15190342 0.22933996 0.07356041 0.10949653
0001d0 90 58 83 3e 2d fd d9 bc 71 5f a2 bc c1 61 9b bc
       0.25653505 -0.026609981 -0.0198209 -0.018967511
0001e0 37 9a 05 bc 52 83 aa bd 93 f5 bb bd 60 95 6f 3d
       -0.008154443 -0.083258286 -0.09177699 0.058492064
0001f0 d3 0e 58 bd 06 56 bc bd c8 f6 bd 3d f6 0f 68 3d
       -0.052748512 -0.09196095 0.092755854 0.056655847
000200 8a 79 bc 3d 73 84 89 3d 74 2d 56 3d 62 aa c9 3c
       0.09202869 0.06714716 0.05228944 0.024617378
000210 f8 b7 d6 3c c3 5e e9 3c c5 88 65 3d a3 e2 89 3c
       0.02621077 0.028487569 0.056038637 0.016831702
000220 f4 61 d8 bb c6 fd 05 3e 65 5e 3d 3d 96 cd 96 3d
       -0.006603474 0.13085088 0.0462326 0.07363431
000230 02 7f fd 3c 5e 37 03 3e 38 44 23 3d 6b 31 d7 3d
       0.030944351 0.1281409 0.03985998 0.105074726
000240 98 2d 52 3e 79 c0 3f 3e ce 9b bc 3d 22 cf 0f 3e
       0.20525205 0.18725766 0.09209405 0.14043859
000250 9c 2c 0c 3e a9 c4 e2 3d 10 fc 1d 3e 59 c6 1a 3e
       0.13688892 0.11072666 0.15428185 0.15114726
000260 91 3d 4c 3e 3a f1 35 3e 3b 5d 8e 3d 09 90 8e 3d
       0.1994536 0.17767802 0.06951376 0.06961066
000270 03 43 fd 3d 4e d5 d2 3d 88 67 1e 3e da 3e 8a 3d
       0.12366297 0.10294591 0.15469182 0.06750269
000280 93 ad a7 3d 8f ca b0 3d 56 91 13 3d 70 c2 65 3c
       0.081874035 0.08632385 0.036027275 0.014023408
000290 d7 6a a5 3d fd ed ce 3d 0f f7 99 3d a2 a0 a6 3d
       0.08077019 0.101039864 0.07517826 0.08136107
0002a0 bc 6f ef 3d 53 50 e3 3d b9 b0 8c 3d 04 d4 bf bd
       0.116912335 0.11099305 0.06869645 -0.09366611
0002b0 49 2b 9c bc ff a4 fb 3b 39 02 5e bd 3b c9 a5 bd
       -0.019063609 0.007679581 -0.05420134 -0.08095022
0002c0 ee 90 ce 3c 72 80 36 bd 23 e0 25 bc a9 49 3b bd
       0.025215592 -0.04455609 -0.010124239 -0.045724545
0002d0 a1 d5 4e 3e e9 81 24 3e 5e 65 b6 3d be 48 23 3e
       0.2019868 0.16065182 0.08906053 0.15945718
0002e0 94 22 ed 3d 6f 7e 8c 3d db ca b6 3d bf 0e 2b 3e
       0.11578861 0.06860053 0.0892541 0.16704844
0002f0 05 f1 4c 3e a9 3f dc bd 6b db 8b bd e4 17 81 bd
       0.20013817 -0.1075433 -0.0682896 -0.06303385
000300 f3 fe 90 bd 68 36 f8 bb 8a 14 d6 bc a6 a0 c0 bd
       -0.07079878 -0.007574845 -0.02613284 -0.09405641
000310 2b 49 62 bd d9 37 f4 bc 8b d2 dc 3d 2e 63 b8 3d
       -0.05524556 -0.029811786 0.107823454 0.09003292
000320 af 2e a7 3d 9c 89 8e 3d cb 49 f8 3d 9c f2 26 3e
       0.08163201 0.06959841 0.1212345 0.16303486
000330 59 21 e3 3d 19 05 9c 3d f8 f7 38 3e 98 ef 97 bd
       0.11090345 0.0761816 0.18063343 -0.07418746
000340 e3 0a ba 3b 29 28 1a bd 44 2e 83 bd b5 d3 6d bc
       0.0056775673 -0.037635956 -0.06405309 -0.014515807
000350 67 87 f7 bd f4 9a ab bd 92 78 81 bd a6 f9 e8 bd
       -0.12086373 -0.08379164 -0.06321825 -0.11375742
000360 eb 0b a3 3d d1 17 95 3d de 48 55 bc 73 0c af 3d
       0.079612575 0.07279933 -0.013017861 0.085472964
000370 11 fb 2f 3d 91 b4 31 3b c2 d7 7c 3d 21 ac 6c 3d
       0.042964045 0.0027115683 0.0617292 0.057781342
000380 3f 58 aa 3d e6 dd cf bc 6b ac 5a 3c 23 d0 7d bd
       0.08317613 -0.025374364 0.013346772 -0.061966073
000390 fa 8c a3 bb 1f 6c 17 3b a5 7c a0 bd 9e af 60 bd
       -0.004991171 0.0023105217 -0.07836274 -0.05485498
0003a0 2a 93 35 3c e5 c1 d9 bd a0 d4 1d bd de e0 b9 bd
       0.01108245 -0.106326856 -0.038532853 -0.09076093
0003b0 20 3f e3 3c c4 82 bd bd 08 1e fc bc 32 45 70 3c
       0.027740061 -0.09253457 -0.030776039 0.014664935
0003c0 5b fa 27 bc 03 05 b1 3b f4 fd 57 bd 8a 8f b3 bc
       -0.0102525605 0.005402209 -0.052732423 -0.02191903
0003d0 0c 1a 17 3d c0 7a 8d bd 82 76 27 3c b0 02 f2 bc
       0.036890075 -0.06908178 0.010221126 -0.029542297
0003e0 cb ab 85 bc 9a b6 87 3d 46 57 7e bc 60 35 a9 bc
       -0.016317269 0.06626625 -0.015523737 -0.020655334
0003f0 83 6a b9 3d ce e4 8d 3d db 55 cb 3c bb 10 5f 3d
       0.090535186 0.06928407 0.024821213 0.054459315

fc1.bias f4 [16]
000000 bc dc 2c bd 23 e8 99 3b 78 bf a1 3c 57 e9 4a 3c
       -0.042202696 0.0046968623 0.01974462 0.012384734
000010 62 69 13 bc 70 b4 30 bd d7 ae 12 bc 44 5d d2 bc
       -0.008997293 -0.04314083 -0.008952818 -0.025679238
000020 23 71 5c 3d da d9 80 3c b9 21 32 3d 18 06 31 3d
       0.053818833 0.01572888 0.04348919 0.043218702
000030 19 cb 38 bd 7b 79 49 bc 81 30 37 3b 76 d1 51 bc
       -0.045115564 -0.01229703 0.0027952495 -0.012806287

fc2.weight f4 [2, 16]
000000 a9 af 7f be 21 20 08 3e c7 9a 47 be f8 16 cf bd
       -0.24969353 0.13293506 -0.19492637 -0.10111803
000010 22 84 ee be e5 17 42 3e 43 ca e6 be 95 29 cb 3e
       -0.46585184 0.18954428 -0.45076188 0.39680162
000020 21 18 a8 be 45 31 55 3e ab 9d a4 be 74 c4 c7 bb
       -0.3283091 0.20819576 -0.3215154 -0.006096417
000030 ab 68 1b 3e 0f 28 f1 be 3c be 92 3e ae 7d e2 be
       0.15176646 -0.47100875 0.28660762 -0.4423651
000040 10 ff ed 3e 9f 94 1f 3e 93 26 b0 3e 9c 2a 05 3f
       0.4648366 0.15584038 0.3440443 0.5201814
000050 9a 1d ef 3e 10 f1 89 bc e3 d9 6d 3e 71 23 df be
       0.46702272 -0.01683858 0.23227648 -0.43581727
000060 5d f0 73 3e 93 f9 d4 be 77 1b a1 3e 74 14 9b 3b
       0.2382216 -0.4159666 0.31466267 0.004732663
000070 f3 e0 1e be 13 44 93 3e f5 83 2c be b6 e7 6a 3e
       -0.15515499 0.28762874 -0.16847213 0.22939953

fc2.bias f4 [2]
000000 5d 5b db 3d 75 e9 ca 3c
       0.107107855 0.024769524
