src/data/models/last_model.pt (torch_old, 26041 bytes, 6 tensors)

conv1.weight f4 [32, 4, 12]
0.044903558 -0.13397083 0.08551324 0.103187524 -0.06155448 -0.17502117 0.0060514584 -0.005908154
0.015770154 -0.03571175 -0.28815135 -0.07008062 0.17675616 0.122662015 -0.17160536 0.06689643
0.05375258 0.089572355 0.0823654 0.022565907 0.11800017 0.08343791 0.031775847 0.1155128
-0.18115617 0.1801552 0.039692037 -0.26379234 -0.1567349 -0.09136709 -0.11667908 -0.20775028
0.06981041 -0.26180187 -0.21408413 0.04418591 -0.15368772 -0.07247706 -0.16996676 -0.27080205
-0.09581828 -0.0069458173 -0.10482202 -0.27835104 -0.2308073 0.035705514 -0.017513027 -0.2083156
-0.11025961 0.11743429 -0.1441987 -0.21533325 -0.27330926 0.1736862 0.13649169 -0.29330412
-0.30954856 0.042153765 0.04423721 -0.17088675 -0.18680221 -0.076254986 0.13687082 0.16927636
-0.049843993 -0.2522522 0.029240249 0.19669768 -0.285055 0.0208769 0.093776375 0.22144009
0.048286878 -0.14529848 0.0148331225 -0.31428063 0.203981 -0.1438211 -0.23879384 -0.11398761
0.16629168 -0.37758625 -0.4204349 -0.12868927 -0.06092905 -0.020511085 -0.013511591 -0.23861973
-0.1459503 -0.2261773 -0.30226415 -0.4066526 0.020848153 -0.39996022 -0.29854882 -0.13504063
-0.17304431 -0.030220054 0.11018552 -0.21722323 0.056031402 0.18740855 0.009461374 0.0667248
0.13253587 0.037751716 -0.003727618 -0.031163571 0.19372895 -0.04744178 0.0046353107 -0.1836361
0.11450923 0.10148812 0.043956682 -0.010335293 0.023794124 -0.036083646 -0.09785522 0.03852716
0.020441981 0.052621104 -0.02049451 0.150657 -0.05513502 0.08967124 -0.09087488 -0.1798406
0.070470564 0.012922541 -0.028638627 0.12402755 0.05669927 -0.07181417 0.12219702 0.17011657
0.04694604 -0.007344317 0.1328724 0.12721652 0.080338866 -0.14010906 0.2069415 -0.17596954
-0.025435874 -0.19199307 -0.032531273 0.05296313 0.061070267 0.090878956 -0.11807334 0.1484713
0.055011187 -0.15461041 -0.23804706 0.14875357 -0.1872625 0.15834157 0.09827263 -0.10556738
-0.01176402 0.13950717 -0.009530868 -0.11321757 0.08911635 0.2267358 -0.2539262 -0.06593289
-0.17152464 -0.061459757 0.03991014 -0.04429596 -0.09595642 -0.2739378 0.16892014 -0.16355123
-0.054971598 -0.20413823 0.17242667 -0.21124844 -0.06564439 -0.15752262 0.09037741 0.0046772314
-0.039259072 0.007547769 -0.14463267 0.07462117 0.08876711 -0.13236928 0.19155236 -0.047009833
-0.015347199 0.2160121 0.039827958 0.041890807 0.037669376 -0.039403502 0.15428494 -0.23411815
-0.1958846 0.18323053 -0.14306666 0.0016333967 -0.15030046 0.030518834 0.039979786 0.14681229
-0.050257698 -0.036508713 0.022598563 0.16484302 -0.07283486 -0.09046969 0.11343355 -0.026736319
0.15357684 -0.1786255 -0.086281635 0.020798404 -0.017411971 -0.020070981 0.033349708 -0.07236756
0.051962607 0.015027481 0.043129504 0.06696763 -0.08039188 -0.088184096 -0.079820104 0.061302416
-0.1695084 -0.017661985 0.094545 -0.039111666 0.23703139 -0.16933993 -0.055858277 -0.16141942
0.00047124983 -0.13622898 0.13252808 0.046099637 -0.12208844 0.1573349 0.21560693 -0.20047487
-0.07939994 -0.0059195696 -0.135773 0.06015585 -0.015779834 0.11411606 -0.22008348 -0.09701974
00000000: cbec 373d a62f 09be 9121 af3d fb53 d33d
00000010: 8d20 7cbd c038 33be 504b c63b 3099 c1bb
00000020: 6930 813c 7c46 12bd 9388 93be 6e86 8fbd
00000030: 91ff 343e 3936 fb3d 51b9 2fbe ff00 893d
00000040: aa2b 5c3d b671 b73d 31af a83d 23dc b83c
00000050: 13aa f13d 7fe1 aa3d 6427 023d fa91 ec3d
00000060: 0181 39be 9b7a 383e 1e94 223d ca0f 87be
00000070: 1d7f 20be ab1e bbbd 71f5 eebd 7dbc 54be
00000080: c3f8 8e3d e50a 86be df38 5bbe 49fc 343d
00000090: 5060 1dbe da6e 94bd c40b 2ebe 91a6 8abe
000000a0: 603c c4bd bd99 e3bb edac d6bd 0784 8ebe
000000b0: c058 6cbe f23f 123d 7b77 8fbc af50 55be
000000c0: cacf e1bd 6481 f03d d3a8 13be 5280 5cbe
000000d0: 31ef 8bbe ccda 313e 7ac4 0b3e f52b 96be
000000e0: 267d 9ebe 6da9 2c3d 1432 353d f0fc 2ebe
000000f0: 1449 3fbe 932b 9cbd dd27 0c3e c856 2d3e
00000100: 3729 4cbd 3327 81be 3f89 ef3c 1e6b 493e
00000110: bbf2 91be 0806 ab3c d40d c03d 31c1 623e
00000120: 76c8 453d 20c9 14be a006 733c 64e9 a0be
00000130: 65e0 503e d745 13be 5f86 74be 5672 e9bd
00000140: 5e48 2a3e fc52 c1be 3e43 d7be 1fc7 03be
00000150: bd90 79bd dd06 a8bc b85f 5dbc bb58 74be
00000160: ff73 15be 069b 67be 5ec2 9abe c534 d0be
00000170: bfc9 aa3c 96c7 ccbe 64db 98be 1748 0abe
00000180: 8732 31be 0c90 f7bc f2a8 e13d c46f 5ebe
00000190: 2f81 653d 07e8 3f3e e103 1b3c 03a7 883d
000001a0: 7cb7 073e 8ba1 1a3d 0d4b 74bb bf4a ffbc
000001b0: e260 463e 5052 42bd cee3 973b 1a0b 3cbe
000001c0: d183 ea3d 01d9 cf3d ec0b 343d 5c55 29bc
000001d0: e5eb c23c 72cc 13bd 5168 c8bd a8ce 1d3d
000001e0: f175 a73c 3a89 573d 1ae4 a7bc d445 1a3e
000001f0: 42d5 61bd 8ea5 b73d 9c1c babd 2228 38be
00000200: df52 903d 11b9 533c 8e9b eabc 2802 fe3d
00000210: 7e3d 683d 4f13 93bd 6e42 fa3d 0a33 2e3e
00000220: 7e4a 403d 99a8 f0bb b40f 083e 0c45 023e
00000230: b488 a43d c078 0fbe 79e8 533e 5c31 34be
00000240: e55e d0bc d599 44be 833f 05bd deef 583d
00000250: d124 7a3d bf1e ba3d 6fd0 f1bd dc08 183e
00000260: 6953 613d 3152 1ebe 9cc2 73be db52 183e
00000270: bec1 3fbe 4b24 223e 2943 c93d b633 d8bd
00000280: e0bd 40bc f8da 0e3e 5c27 1cbc 9dde e7bd
00000290: a282 b63d 6e2d 683e 9d02 82be d307 87bd
000002a0: 28a4 2fbe 3abd 7bbd d178 233d ae6f 35bd
000002b0: cd84 c4bd 9341 8cbe 67f9 2c3e f979 27be
000002c0: e629 61bd 9d09 51be 9e90 303e 8351 58be
000002d0: 9170 86bd 9c4d 21be cb17 b93d 7643 993b
000002e0: 1fce 20bd 4753 f73b 961a 14be fcd2 983d
000002f0: 88cb b53d d08b 07be 4d26 443e 628d 40bd
00000300: d172 7bbc 4732 5d3e a422 233d b295 2b3d
00000310: 344b 1a3d 9165 21bd dffc 1d3e abbc 6fbe
00000320: f995 48be c9a0 3b3e 1180 12be b317 d63a
00000330: 5de8 19be a202 fa3c d8c1 233d f655 163e
00000340: 04db 4dbd 298a 15bd 9f20 b93c 9ccc 283e
00000350: 712a 95bd 2c48 b9bd d94f e83d 2006 dbbc
00000360: 3f43 1d3e 9ae9 36be 6db4 b0bd 6a61 aa3c
00000370: 8da3 8ebc e66b a4bc b499 083d 7135 94bd
00000380: bed6 543d d335 763c 90a8 303d 5326 893d
00000390: 7fa4 a4bd dd99 b4bd b978 a3bd 3e18 7b3d
000003a0: 9c93 2dbe deaf 90bc cfa0 c13d 8e33 20bd
000003b0: 5bb8 723e 7267 2dbe a6cb 64bd 224b 25be
000003c0: 1512 f739 9c7f 0bbe 71b5 073e f9d2 3c3d
000003d0: 8109 fabd 661c 213e 10c8 5c3e 4949 4dbe
000003e0: 709c a2bd f3f8 c1bb 1408 0bbe fb65 763d
000003f0: b644 81bc aeb5 e93d 905d 61be 49b2 c6bd

conv1.bias f4 [32]
-0.13560922 -0.040888503 -0.05021407 -9.765816e-05 0.11141925 0.10461361 0.13348855 0.01792061
-0.05096532 -0.056926657 0.06770881 0.10043944 -0.12540421 0.15671492 -0.17042302 0.02603453
-0.12056748 -0.03823676 -0.10296585 0.09664782 -0.08882184 0.13566625 0.09207368 -0.038660996
-0.040179774 -0.13962153 0.11091972 -0.08043873 0.12937963 0.07152944 -0.07683253 0.06877437
00000000: 25dd 0abe b47a 27bd 45ad 4dbd d3cd ccb8
00000010: c72f e43d a93f d63d 39b1 083e 3ece 923c
00000020: 03c1 50bd ed2b 69bd ebaa 8a3d 31b3 cd3d
00000030: f669 00be e079 203e 5f83 2ebe 5e46 d53c
00000040: 15ec f6bd 269e 1cbd c2df d2bd 4bef c53d
00000050: 3ae8 b5bd 18ec 0a3e 2091 bc3d fe5a 1ebd
00000060: 8c93 24bd f2f8 0ebe e129 e33d 10bd a4bd
00000070: 187c 043e 077e 923d 605a 9dbd 94d9 8c3d

fc1.weight f4 [16, 288]
-0.13406155 -0.13985102 0.022967437 -0.01903252 -0.07747556 -0.045732368 -0.13173784 -0.09093115
-0.09348499 -0.228317 -0.12727852 -0.24912131 -0.22956628 -0.27542177 -0.28317565 -0.18025677
-0.03533224 -0.31773797 0.05546793 0.073959455 0.11549729 0.058951996 0.14804238 0.13232832
0.09406911 0.13833797 0.1212814 -0.038122155 -0.1088276 0.037155528 -0.004440031 0.014758432
-0.040645264 -0.039383188 -0.05769603 -0.15397269 -0.05147178 0.08001121 0.058572434 0.06230899
0.037305024 0.04242599 -0.03484201 0.021049269 0.06114195 0.15571871 0.05289634 0.12380108
0.04624466 0.091219544 0.080005 0.14712578 0.04174342 0.17635429 0.055505395 0.07602924
-0.013290869 0.03407296 0.08746954 0.003446201 0.068634935 0.12530363 0.062628746 0.060036644
0.060549997 0.053207625 0.067751296 0.0086870035 0.03681924 0.054016463 0.12463417 0.049133983
0.10784098 0.10282362 0.032929752 0.029136932 0.06733022 0.1060046 0.09404767 0.17427249
0.07299013 -0.09886321 -0.02128671 0.01407447 0.025243351 0.005756668 -0.06574707 0.03439466
-0.04450735 0.0012323323 0.2021856 0.115658194 0.09440492 -0.017685317 0.058846947 0.054716736
0.059677776 0.09405752 0.059379667 -0.08737574 -0.17640938 -0.08428549 -0.04371491 -0.13200052
-0.04123771 -0.017034315 -0.18767534 -0.2318 -0.16833717 -0.14374878 -0.14060424 -0.12281765
-0.08213508 -0.1136672 -0.121968076 -0.14966872 -0.29129916 0.029743373 -0.045757163 -0.0814406
-0.036946397 0.041688215 0.01560028 -0.01504124 0.09409853 0.116525576 -0.19175251 -0.08688868
-0.084090434 -0.16450113 -0.04406421 -0.051291186 -0.13010255 -0.19740291 -0.06493356 -0.079138145
0.025930403 0.023620494 -0.019936733 -0.046821382 0.043178797 0.038778853 -0.068481475 0.057593383
0.016015386 0.0009312778 0.03386663 0.09272792 -0.034938946 0.0901195 0.08718491 0.06835399
0.025699848 -0.07347886 0.008771807 -0.058166075 0.021408156 -0.21946082 -0.16360314 -0.055690635
-0.12741743 0.001287051 0.13214426 0.09175375 0.05253171 0.13851729 0.124288745 0.13489565
0.09787572 0.06185256 0.18822984 -0.018450452 -0.047987457 0.022699371 0.043307338 0.06077124
0.006810573 -0.033201046 0.0034631167 -0.037743863 -0.12265953 -0.11115022 -0.05918541 -0.0876362
-0.03473083 -0.10286298 -0.11263122 -0.116920836 -0.09883873 -0.012752167 -0.055153657 -0.03172636
-0.035944156 -0.07720374 -0.045243774 -0.03235494 -0.054476984 -0.041909922 -0.06747509 -0.027482657
-0.067684226 -0.09858402 -0.08543711 0.0005386964 -0.0855813 -0.03986413 0.0009319144 -0.041900996
-0.07145242 0.07316026 0.0070511247 0.015095754 -0.004499702 0.020438194 -0.06296198 -0.10597371
0.045886744 0.055429447 0.11871131 0.053255703 0.09040961 0.06392364 0.13943161 0.18110316
0.07701694 -0.12111326 -0.05510025 -0.024209416 -0.057385467 -0.021082902 -0.028722094 -0.027752917
-0.017919952 -0.09138487 -0.14036141 -0.0496998 -0.005237123 -0.04374429 -0.012410945 -0.0032677252
0.008718762 -0.023965038 -0.057486873 0.14139332 0.10444527 0.14144462 0.115125924 0.0939517
0.17953414 0.082824886 0.12462515 0.2011118 0.0074862344 -0.012861832 -0.006385507 -0.005650155
00000000: 6e47 09be 1b35 0fbe 3526 bc3c 16ea 9bbc
00000010: 82ab 9ebd dd51 3bbd 49e6 06be 1c3a babd
00000020: 0f75 bfbd efcb 69be 4d55 02be a819 7fbe
00000030: 6c13 6bbe 1504 8dbe 66fc 90be 3b95 38be
00000040: 8ab8 10bd 8dae a2be 5732 633d 0e78 973d
00000050: d889 ec3d a677 713d 6c98 173e 1381 073e
00000060: 4ea7 c03d 78a8 0d3e 6262 f83d fa25 1cbd
00000070: 01e1 debd 6530 183d ae7d 91bb 5acd 713c
00000080: a67b 26bd 4450 21bd ac52 6cbd 04ab 1dbe
00000090: 13d4 52bd ebdc a33d a6e9 6f3d b637 7f3d
000000a0: 27cd 183d e0c6 2d3d 7fb6 0ebd 846f ac3c
000000b0: fb6f 7a3d ba74 1f3e d5a9 583d 6c8b fd3d
000000c0: 0a6b 3d3d 50d1 ba3d a9d9 a33d 24a8 163e
000000d0: 26fb 2a3d 3896 343e a059 633d 38b5 9b3d
000000e0: f2c1 59bc 1790 0b3d 3b23 b33d a9d9 613b
000000f0: 7990 8c3d 984f 003e 8043 803d fce8 753d
00000100: 4603 783d 3df0 593d 31c1 8a3d ef53 0e3c
00000110: c5cf 163d 5e40 5d3d 3340 ff3d b740 493d
00000120: bbdb dc3d 3195 d23d 59e1 063d 93b0 ee3c
00000130: 6de4 893d f118 d93d 119c c03d 7d74 323e
00000140: d97b 953d cb78 cabd 7761 aebc 9b98 663c
00000150: 25cb ce3c 6ea2 bc3b 66a6 86bd 6ae1 0c3d
00000160: 574d 36bd 3686 a13a be09 4f3e 34de ec3d
00000170: 5e57 c13d cce0 90bc 7f09 713d a81e 603d
00000180: af70 743d 3ba1 c03d 1838 733d 0df2 b2bd
00000190: a9a4 34be df9d acbd 680e 33bd 252b 07be
000001a0: dfe8 28bd 8c8b 8bbc f72d 40be fb5c 6dbe
000001b0: 9460 2cbe e132 13be 8ffa 0fbe d287 fbbd
000001c0: 7036 a8bd 59ca e8bd 66ca f9bd c242 19be
000001d0: 2a25 95be 60a8 f33c dd6b 3bbd 54ca a6bd
000001e0: 1b55 17bd 43c1 2a3d 5198 7f3c 886f 76bc
000001f0: bbb6 c03d f6a4 ee3d c55a 44be b1f2 b1bd
00000200: 9b37 acbd fc72 28be ac7c 34bd b516 52bd
00000210: 9a39 05be fd23 4abe e3fb 84bd 2e13 a2bd
00000220: ff6b d43c c47f c13c 5c52 a3bc c7c7 3fbd
00000230: 40dc 303d 93d6 1e3d 0440 8cbd 0ae7 6b3d
00000240: b332 833c ff20 743a bcb7 0a3d 23e8 bd3d
00000250: 241c 0fbd 9390 b83d 018e b23d 2dfd 8b3d
00000260: 7d88 d23c 167c 96bd a0b7 0f3c 8d3f 6ebd
00000270: 2860 af3c 56ba 60be 9587 27be dd1b 64bd
00000280: b779 02be 44b2 a83a d350 073e 64e9 bb3d
00000290: 7e2b 573d 7ad7 0d3e 198b fe3d 1622 0a3e
000002a0: 1173 c83d 1c59 7d3d 53bf 403e 6725 97bc
000002b0: 7f8e 44bd 08f4 b93c 0963 313d 44eb 783d
000002c0: 3a2b df3b d2fd 07bd 75f5 623b 4f99 1abd
000002d0: eb34 fbbd baa2 e3bd 676c 72bd 9c7a b3bd
000002e0: ea41 0ebd d3a9 d2bd 32ab e6bd 3174 efbd
000002f0: f66b cabd 77ee 50bc cde8 61bd 80f3 01bd
00000300: 2e3a 13bd ff1c 9ebd 8951 39bd 9d86 04bd
00000310: 4223 5fbd bda9 2bbd 6130 8abd 4f23 e1bc
00000320: 079e 8abd 6be6 c9bd a7f9 aebd 4e37 0d3a
00000330: 4045 afbd 9248 23bd b74b 743a 61a0 2bbd
00000340: a555 92bd 0cd5 953d 1f0d e73b 2e54 773c
00000350: 3c72 93bb 006e a73c 36f2 80bd bf08 d9bd
00000360: bdf3 3b3d fd09 633d ea1e f33d a722 5a3d
00000370: ac28 b93d 66ea 823d 29c7 0e3e 1b73 393e
00000380: 0fbb 9d3d 3b0a f8bd cdb0 61bd d352 c6bc
00000390: 060d 6bbd 0db6 acbc 994a ebbc 165a e3bc
000003a0: ddcc 92bc fe27 bbbd e7ba 0fbe 0492 4bbd
000003b0: 2c9c abbb 362d 33bd 4757 4bbc 5527 56bb
000003c0: 23d9 0e3c 5452 c4bc 5b77 6bbd 69c9 103e
000003d0: 67e7 d53d dcd6 103e 24c7 eb3d c069 c03d
000003e0: ccd7 373e 18a0 a93d 783b ff3d 40f0 4d3e
000003f0: 164f f53b 6fba 52bc 843d d1bb ef24 b9bb

fc1.bias f4 [16]
0.019590262 -0.051380526 -0.00929878 -0.006689974 0.039641984 -0.021667087 0.070072256 -0.031585615
0.04327221 0.047101915 -0.03642884 -0.029621987 0.0087202955 -0.03538678 -0.008420376 -0.022313679
00000000: c27b a03c 6374 52bd e959 18bc 9237 dbbb
00000010: a25f 223d 2d7f b1bc 0b82 8f3d eb5f 01bd
00000020: 333e 313d f0ed 403d 6836 15bd cfa9 f2bc
00000030: 92df 0e3c baf1 10bd 9ef5 09bc 2dcb b6bc

fc2.weight f4 [2, 16]
0.36185706 0.23607737 0.0022343872 -0.28973696 -0.28200203 -0.21502753 0.23887947 0.10847265
-0.43755084 -0.029524216 0.15247425 -0.31402627 0.18258214 -0.20185547 0.44986725 -0.4671479
-0.3999401 -0.1860176 0.2618151 0.25601733 0.35655966 0.49835056 -0.2631419 -0.11201868
0.094251305 0.0079363305 0.1569868 0.45209068 -0.08705496 0.37653393 -0.4479563 0.1543129
00000000: 5445 b93e 44be 713e cc6e 123b 6758 94be
00000010: 9262 90be 2d30 5cbe d29c 743e e926 de3d
00000020: aa06 e0be c5dc f1bc 3622 1c3e 0dc8 a0be
00000030: d0f6 3a3e 33b3 4ebe 0055 e63e 022e efbe
00000040: f3c4 ccbe 667b 3ebe a10c 863e b414 833e
00000050: fd8e b63e ce27 ff3e 89ba 86be 0d6a e5bd
00000060: d406 c13d 6207 023c 26c1 203e 6e78 e73e
00000070: df49 b2bd 0ec9 c03e 875a e5be 3304 1e3e

fc2.bias f4 [2]
0.054616816 -0.19419983
00000000: e2b5 5f3d 52dc 46be
