src/data/models/last_model.pt (torch_old, 26041 bytes, 6 tensors)

conv1.weight f4 [32, 4, 12]
00000000: 3725 633c 6907 81be 3c16 063e dbf0 253e
00000010: dce6 10be 9ed0 71be 74c3 cdbd df3d af3d
00000020: 9fb2 453e ad60 a2bd 65dc 98bd eab1 78be
00000030: cbf0 e63d a150 e63b 69c3 60bd fde4 80bd
00000040: 7b00 863d 6e4b 78bd b9a3 0b3e 6500 1d3d
00000050: e6cb 18be 2a32 a53c 9374 023e 0b2e 93bb
00000060: ad53 ab3d 626e 703c 5bed 123d d17e 0ebe
00000070: 94f1 5cbe adf0 0abe 2724 693d 016f df3d
00000080: f473 b5bd d433 2dbe 1029 30be efcb 87bc
00000090: d858 d8bb 41c9 edbd 1697 f6bd 9075 4dbd
000000a0: 3e90 81bd ca29 68bc ebb6 98be 3494 91be
000000b0: 30bb f1bd 03a8 04bd de38 b83d 6abb 09bd
000000c0: aa6c 073e c1ad 8e3d 4145 49be 93a8 183e
000000d0: abd1 a2bd c7c9 933c 0eae c5bd 4ae3 ef3d
000000e0: 9fa9 56bd bb9d 1b3d 48e6 80bd 7b4b 4c3d
000000f0: 5f0e 16be ad0f 5cbe 09f5 163e 9ab1 113e
00000100: 80cb 723d 63be 04be ebd7 7f3d 20d0 22be
00000110: 9962 183e ead6 103d 09cf c5bb 0f28 7a3a
00000120: 67cd e43d 7b07 f33d 075c 453d 27b5 81bd
00000130: a3ae 70bd f173 323d 88e3 8b3b 9321 823d
00000140: 181f fa3d 7b6f a33d ad78 c33c 3d70 0c3e
00000150: 358c 203e e6e2 2f3d 3ed6 ccbd f5c3 d63c
00000160: 2ff2 2bbd 3e1e 223e 0602 edba 8f21 97bc
00000170: 34e3 f5bc aac5 a83d 9323 f63d 0ed7 ec3d
00000180: 9eba 2c3e b759 8abd 4d4e 143d 6212 f53d
00000190: c266 46be cf50 423d 8970 d3bb f9c1 c3bc
000001a0: 9f80 1d3e 7006 afbd 6151 b1bd dd28 4c3e
000001b0: 4777 27bd 6e1e c43d c5b4 b5bc b926 93bd
000001c0: 7bae 31be 7618 2abd bd8e 80bc 1335 ee3b
000001d0: b157 bb3d de47 153d a7f5 153e ff64 9d3d
000001e0: 99f0 19be 5a3b 9c3d 1da3 123e cdad 0c3e
000001f0: 01a7 4f3e 790b a43d 516c 15be 917d eb3c
00000200: 1999 ccbd 942a b03d 5df0 5cbd 7eb3 423c
00000210: bb33 4e3e 85d7 80bd 8501 8ebd 7814 043e
00000220: dba3 7d3e b6ff 9b3d a787 f9bc 29d7 2ebe
00000230: a8dc 863d 30c4 063e 4612 8abd 608f 2e3d
00000240: 51ee af3c 580d 26bd e2bc 16be 487f 54be
00000250: 6816 073d 9b84 eb3c 254a 5fbe 95fb adbe
00000260: 377c 603d 6cdb 023e 18ba 5bbe 0ece fcbd
00000270: eba8 1fbe 9f41 e03d 406b 593e 8d5c 05be
00000280: ae08 c7bc 8432 cb3d eebd 443e 8409 25be
00000290: 3b62 2bbc fc9d 1e3e a0a8 283e 743c 44be
000002a0: d1c8 55bd 622d 87bd 6359 66bd f743 233e
000002b0: dec5 41be dc8f 6ebb e4d5 61be 1ccd aa3c
000002c0: 89ec 8ebe 36ff 6cbe a9f5 74be 7d77 a2bc
000002d0: 2347 58bd b17c 8fbd 94bd 05be fd36 a3bc
000002e0: 0273 17bd 692a 43bd 229c 40be ef7d 9fbd
000002f0: 8525 9fbe 14b4 7ebe 14da c4bd 3bc3 303e
00000300: c61a b0bd 1341 12bd d71f 05be b763 c0bd
00000310: 23b9 f23b 8ac1 613e 60bb 41bd 6bf3 44bd
00000320: 7c90 383e 4112 6cbd f7af df3c afb3 8c3d
00000330: 7ac4 5cbd 0428 33be 151c 843c ffe2 6d3d
00000340: d36b 373e 24f5 23be 6bbf 983d 917c 97bd
00000350: 748f 0fbe d5b3 6bbd adaf ae3d 9e6d 133d
00000360: 8b0f a8bd 27d8 4e3c 4e1d 353e 3539 ec3d
00000370: 796e eabd b7fc 313d 69a0 7a3d 871e ae3c
00000380: 29e1 f53d 716c 1e3e 3a1b 3c3c 5b31 7abb
00000390: 637a 73bd 1082 febd 9e1f 29bd 3d27 0c3d
000003a0: 8ea3 423e 31d2 ac3d 2b38 493e 4bed 0a3e
000003b0: c1be 123e 9f57 283e af61 f13d a1c9 62bd
000003c0: 5ac3 293e 56a6 583c b716 a63d 8ca7 b53d
000003d0: 2c08 0fbd c86e 533d 7003 9c3d 76af 1cbe
000003e0: 2595 b8bc aa0e d23d b1c5 30bd 1d53 81be
000003f0: e888 c93d db3f 06be f4e0 9f3d 1bc8 293e
0.013863853 -0.25200966 0.13094419 0.1620516 -0.14150566 -0.23614737 -0.10047045 0.08556723
0.1930642 -0.07928596 -0.07463912 -0.24286619 0.11276396 0.0070286547 -0.054873858 -0.06293676
0.065430604 -0.06061881 0.13636674 0.038330454 -0.14921531 0.020165522 0.12739782 -0.0044915727
0.08365569 0.014674755 0.03587089 -0.13915564 -0.2157653 -0.13568373 0.056919243 0.10909844
-0.08860007 -0.16914302 -0.17203164 -0.016576735 -0.006602388 -0.11610652 -0.12040536 -0.050160944
-0.0632634 -0.01417012 -0.29827055 -0.28433383 -0.11803281 -0.03238679 0.089952216 -0.033625998
0.13225046 0.06966735 -0.19655325 0.14908056 -0.07950147 0.01804055 -0.09652339 0.11713274
-0.052407857 0.03799222 -0.06293923 0.04987667 -0.1465392 -0.21490355 0.14741911 0.14227906
0.059276104 -0.12963252 0.062461775 -0.15899706 0.14881362 0.035361208 -0.0060366434 0.00095427124
0.1117199 0.11866661 0.048183467 -0.0633338 -0.058760297 0.0435676 0.004269067 0.0635406
0.12212962 0.079802476 0.023861254 0.1371469 0.15678485 0.042940997 -0.10001801 0.026216486
-0.04197901 0.15831849 -0.0018082268 -0.01844862 -0.030015565 0.082408264 0.12018504 0.11564456
0.16868064 -0.06755393 0.036207486 0.11966397 -0.19375136 0.047440346 -0.006452624 -0.023896204
0.15381096 -0.0854615 -0.086581 0.19937463 -0.040885236 0.095761165 -0.022180924 -0.0718512
-0.17351715 -0.041527234 -0.015693063 0.0072695105 0.09147585 0.03644549 0.1464449 0.07685279
-0.15033187 0.07628508 0.14320035 0.13738175 0.2027855 0.08010001 -0.145921 0.028746398
-0.099901386 0.08601871 -0.053940166 0.011883615 0.20136921 -0.06291107 -0.069338836 0.12898433
0.24769537 0.07617132 -0.030460192 -0.17074265 0.065850556 0.13160777 -0.06741767 0.0426172
0.021475943 -0.04054007 -0.1472049 -0.20751679 0.032980353 0.028749755 -0.21805628 -0.33981004
0.05480596 0.12779015 -0.21457708 -0.12343989 -0.15591781 0.10950016 0.21232319 -0.13023587
-0.024296131 0.099217445 0.19213077 -0.16116911 -0.010460432 0.15489954 0.16470575 -0.19163686
-0.052193467 -0.06600453 -0.05623759 0.15943895 -0.18923137 -0.0036401665 -0.22054249 0.020849757
-0.27914837 -0.2314423 -0.23921837 -0.019832367 -0.052802216 -0.07006205 -0.130606 -0.019923681
-0.036974914 -0.047647867 -0.1880956 -0.07787692 -0.31083313 -0.24873382 -0.096119076 0.17261975
-0.08598857 -0.03570659 -0.13000427 -0.09394019 0.007407324 0.22046486 -0.047297835 -0.048083704
0.18023866 -0.057634596 0.027305586 0.068702094 -0.053898312 -0.17495733 0.016126672 0.05807781
0.17912225 -0.16011482 0.07458385 -0.07396806 -0.14019567 -0.057544548 0.08529601 0.03599321
-0.082060896 0.012624777 0.1768696 0.11534349 -0.11446852 0.0434539 0.061188135 0.021254791
0.120058365 0.15471055 0.011481101 -0.003817639 -0.05944289 -0.12427151 -0.041289918 0.034217108
0.19007704 0.08438528 0.19650333 0.13567083 0.1433058 0.16439675 0.1178621 -0.05536807
0.16578427 0.013223251 0.08109801 0.08869848 -0.034919903 0.05161932 0.07617843 -0.15301308
-0.022532055 0.10256703 -0.043157283 -0.25258723 0.09840566 -0.13110296 0.07806578 0.1658024

conv1.bias f4 [32]
00000000: e783 c93d 322c 463d bdde 0b3e e535 af3c
00000010: 29c1 1d3d b9a1 663a 02b2 b23d 817a fd3d
00000020: c921 bc3c 50c7 8bbd f981 c7bc 8708 42bd
00000030: 4387 e8bc 1531 de3d c4ca e2bd 96d8 d13b
00000040: 638b d7bd e198 f2bd ae70 17bd b81c 2fbd
00000050: 7305 58bd 1abf b9bb b372 583e 07a6 8cbd
00000060: 14ed 2e3e 495b 3c3c 573a 863c b10a 5fbd
00000070: 9a72 a6bd 1dbb 003d e0b4 9cbc e9fa f6bd
0.098396115 0.04838199 0.13659187 0.021388004 0.03851429 0.0008797902 0.087253585 0.123768814
0.022965329 -0.06825125 -0.024353968 -0.047371414 -0.02838481 0.108492054 -0.11073831 0.006403993
-0.10524633 -0.118455656 -0.036972694 -0.042751998 -0.05273957 -0.005668533 0.21137504 -0.06867605
0.17082626 0.011496373 0.01638524 -0.054453555 -0.08127327 0.031428445 -0.019129217 -0.12059576

fc1.weight f4 [16, 288]
00000000: a31c 5abd f1b2 11be 724d a4bd 9f2b a0bc
00000010: dfb4 4a3e ddb8 f63d 0e52 743d 285d 033e
00000020: 755a f93d bc4d 013d 2b53 d23b 213b 5f3d
00000030: 8ea4 e2bc 120d 0cbd b452 2bbd 431f 86bd
00000040: 14c1 9abd d9de f7bd 6bd0 4dbd 573e 323d
00000050: 6183 903d c695 cb3d d234 66bd 1f92 4f3d
00000060: 5759 f4bb f820 eebc b53f a2bd 123e bbbd
00000070: 0b42 c6bb be29 a8bc 3460 183d 1661 bc3d
00000080: f36f 483e b0bb 923d a4b7 0b3e 44ea 813e
00000090: 4a7e 953d 14b0 723d 22b6 403d 8566 803d
000000a0: 2227 e0bc 3776 debd e089 593c c35c 2fbd
000000b0: 7a24 17be 9e86 47bb fcd3 a93d 71e4 583d
000000c0: b7b1 3e3c 8d16 9cbd f486 92bd f843 87bc
000000d0: f9fb f0bd 675d 0abe 6c64 4fbd 1bcb 0c3c
000000e0: da51 003c adf8 3ebc 8634 84bd 4910 e2bd
000000f0: da00 023e b94c d5bc 22f7 3e3e 7baa 0bbc
00000100: ff3f a63d 4b3f 84bd 169c 5cbd a7a9 f1bc
00000110: f4e4 9c3c a4b2 dc3b 8864 47bd bde6 a4bd
00000120: 5c26 88bd 17ac dabd b80d 95bd 28ed a4bd
00000130: d873 133d 6b16 163e 9f66 c63d 7f47 c43d
00000140: 1a54 16bc bd4e 79bd 66e7 b63d e871 d73d
00000150: 34ce 083e 6e15 c1bc 6925 193d 12c9 9a3b
00000160: 9f0d 00be 132d e33d 415f 85bd 8e5e 7bbd
00000170: 9f94 023d e748 0abb 27f8 873d 322a 3e3e
00000180: 17f0 033e f719 f83c 0c53 493e c754 33bd
00000190: 8b79 52bd 659a 9bbc 3e81 5b3d 5c34 cb3d
000001a0: 9733 1f3e d02d cb3d 744e c33d f071 853e
000001b0: 4254 a6bd 8ab8 c83d 672a bd3a f1f6 383d
000001c0: 0d72 c43d 2aad ca3d f2bd 28bd c036 a83d
000001d0: ae7b 883d 9673 09bc e8fe a13d 8934 abbc
000001e0: 4d2b 61bd f1d0 c03c 5670 acbd 006a f8bc
000001f0: 806e 69bd 2fb7 d6bd 4536 b8bc 6904 aabc
00000200: 020c 5b3d f19e 2f3d 877d 7a3d 855e 1c3e
00000210: 84a7 773d 2f1c 9e3d e8cf 413e ce36 96bc
00000220: d0e2 07be 51c0 543c 35af dabc f4d7 f53d
00000230: 39f6 443e 651a 233e 6eb4 763e 2170 763e
00000240: a1ac 56bb a17a 85bd f378 13be 4393 b83c
00000250: 46f4 bb3d 2807 203e 9f0f fc3d 1ed1 153e
00000260: 00cb 1c3e 5559 51bc ba13 39be 1c83 7f3c
00000270: 0826 4a3e c677 223e 495b 173e 1da7 403c
00000280: ce00 283e 495b 783e d33d 603d 55cb 99bd
00000290: 8f49 973d cdf4 b73c cd9f 843d 3e49 4b3d
000002a0: 3f4b 7fbc f41b e33d 48b2 403c 2a5e 8a3d
000002b0: 185e 03bd 8b86 383d 5730 3cbd 9459 bbbd
000002c0: 21da 83bd 81bd 56bd 576a a93c 2e8c 193d
000002d0: 905a b53c ff5d a23c 4fac d63d 8b3d 32bc
000002e0: b063 7cbd 7554 5ebd 1c53 54bd ad6f 5fbd
000002f0: 807d 46be 4375 573b 35d4 b43c e38d dcbd
00000300: acc8 103d 8698 eb3d 72d7 8e3d 1812 eb3d
00000310: 9356 c63d 389a 033e 013e 8fbd 6ded 773c
00000320: c0e9 853a b779 c0bc 825d 0e3d a1b2 3a3d
00000330: bfd5 45bd 8cb7 9d3d 2b78 d2bd ce58 95bc
00000340: be18 60bd 0f6c e73c 4dd1 003c fd3a 023e
00000350: 4b27 7b3d e600 cd3d 40b8 47bd 5a53 853e
00000360: 28e6 603d f4c0 ee3a 6db9 5cbd f664 8bbd
00000370: 4f39 acbd 2ee6 e2bc 6a45 41bd 4b7b 2dbd
00000380: f859 1cbe 0a2b 3dbd e466 f83b 7a6a d23d
00000390: 6143 853d ea4d 263e 8254 353e 4827 273e
000003a0: 2264 3f3e 0f82 6a3e e412 53bd dc54 71bd
000003b0: 05ee b2bc 5d9c 8f3d 9dcf 273e 5bd1 2e3e
000003c0: 68e6 023e b78e 853d 630c 4e3e deb2 6e3d
000003d0: 110f 06bd ba1c 4ebc 6dc6 bcbc 1829 173d
000003e0: ed41 0cbd 6683 adbd d8ac f0bd d2ff 01be
000003f0: 744f 403d db50 5f3d 2aa3 253d 8564 dbbc
-0.053249966 -0.14228417 -0.08022584 -0.01955205 0.1979556 0.120469786 0.059648566 0.12828505
0.121754564 0.031568274 0.006418606 0.05449975 -0.027666356 -0.034192152 -0.04182692 -0.065489314
-0.07556358 -0.12103052 -0.05024759 0.043516483 0.070563085 0.099406764 -0.056202717 0.05067646
-0.007456939 -0.029068455 -0.079223074 -0.09142698 -0.0060503534 -0.020527717 0.03720112 0.09198205
0.19573955 0.07164705 0.13644272 0.25374043 0.07299478 0.059249952 0.047048695 0.06269554
-0.02736241 -0.108623914 0.013277501 -0.042813074 -0.14760008 -0.0030445228 0.08292386 0.052952234
0.01163905 -0.07621489 -0.071546465 -0.016511902 -0.1176681 -0.13512193 -0.05063288 0.008593346
0.007832015 -0.011655969 -0.064553306 -0.110382624 0.12695637 -0.02603756 0.18648961 -0.008524532
0.08117675 -0.06457385 -0.053859793 -0.029499842 0.019152142 0.006735163 -0.04867986 -0.08051822
-0.066479415 -0.10677355 -0.07278007 -0.080530465 0.03599915 0.1465699 0.09687542 0.09583949
-0.009175325 -0.060866106 0.089308545 0.10519773 0.1335991 -0.023569789 0.037389193 0.0047236765
-0.12505196 0.110925816 -0.06512309 -0.06136947 0.031880017 -0.0021100582 0.06639128 0.18570784
0.12884556 0.030285819 0.19660586 -0.04378202 -0.051385444 -0.01899452 0.05359005 0.09922096
0.15547024 0.099208474 0.09536448 0.2606349 -0.0812154 0.09800823 0.0014432193 0.045157377
0.09592066 0.0989631 -0.04119677 0.08213568 0.06664215 -0.008389374 0.07909948 -0.020899074
-0.054972935 0.023537131 -0.08419864 -0.030323982 -0.056990147 -0.10484158 -0.022486815 -0.020754056
0.05347825 0.042876188 0.06115487 0.15270431 0.06046249 0.07720219 0.18926966 -0.01833668
-0.13270116 0.012985305 -0.026694873 0.120040804 0.19234551 0.15928037 0.24092266 0.24066211
-0.0032756703 -0.0651753 -0.14401607 0.022531157 0.09177451 0.1562773 0.12307667 0.14630553
0.15311813 -0.012777646 -0.18073931 0.015595224 0.1974107 0.15866002 0.14780916 0.011758593
0.16406557 0.24253573 0.05474646 -0.07509486 0.07387077 0.022455597 0.06475792 0.049630396
-0.015581905 0.11089316 0.011761256 0.067562416 -0.032072157 0.045050185 -0.045944538 -0.09147945
-0.06438089 -0.05242682 0.02068059 0.0374872 0.02213791 0.019820211 0.10482084 -0.010878931
-0.061618507 -0.054279763 -0.05183707 -0.05454986 -0.19383812 0.003287629 0.022073844 -0.1076925
0.035347626 0.11503701 0.06974687 0.114780605 0.096844815 0.12851799 -0.06994248 0.01513229
0.0010216758 -0.023495538 0.034757145 0.04558051 -0.048299547 0.077010244 -0.102768265 -0.018230822
-0.054711096 0.028249769 0.007862401 0.12717815 0.06131677 0.10009937 -0.0487597 0.26040155
0.054906994 0.0018215463 -0.053887773 -0.06806366 -0.08409368 -0.027697649 -0.04718534 -0.04235391
-0.15268695 -0.046183623 0.007580625 0.10274215 0.06506992 0.1624066 0.17708018 0.16323578
0.18690541 0.22901176 -0.051531687 -0.05891882 -0.021842012 0.07012246 0.16387792 0.1707205
0.12783206 0.06521361 0.20121913 0.05827605 -0.032729212 -0.012580091 -0.023043836 0.036904424
-0.03424256 -0.08472328 -0.11751717 -0.12695244 0.046950772 0.05452047 0.04043881 -0.02678133

fc1.bias f4 [16]
00000000: 01d1 fe3c 720b 46bd c77c 1fbc 0b89 33bd
00000010: 0fe2 5a3b fc81 1cba 11e6 353d 69e6 f4bc
00000020: 39a8 04bc f4ac 57bd 7939 143d 147c 853d
00000030: b92b 40ba ef83 273d dda7 0fbd 08b7 edbc
0.03110552 -0.04835076 -0.009734339 -0.043831866 0.0033398902 -0.0005970297 0.04440886 -0.029895024
-0.008096748 -0.052655175 0.036187623 0.06517807 -0.0007330734 0.040897306 -0.035072196 -0.02901794

fc2.weight f4 [2, 16]
00000000: 901f c1be a92f c1bd f3af edbd f846 52be
00000010: 271f c2be bb5d 043c f4af eabe 6210 dbbe
00000020: 4bbe b83d d05e 5abe 69c5 663d 928c cf3e
00000030: 6086 5bbe e29f 03bf d8b7 28bc 1838 dcbe
00000040: b868 d13e b2c2 f53e 2fcb 003f 8ede 743d
00000050: 4f50 793e cd79 49be f662 8f3e 3da7 363e
00000060: ffb3 eebd ce33 983d fcbc 1fbe a425 80be
00000070: 0ea6 cc3e aee8 753e f4f7 593e e872 003e
-0.37719393 -0.094329186 -0.11605825 -0.20534885 -0.37914392 0.008078988 -0.45837367 -0.42785937
0.090206705 -0.2132523 0.05634061 0.40536934 -0.21437979 -0.51415837 -0.010297738 -0.43011546
0.40900207 0.48000103 0.50310034 0.059782557 0.24347042 -0.1967537 0.2800519 0.17837234
-0.11655425 0.07431756 -0.15599436 -0.25028718 0.3997044 0.24014542 0.21285993 0.12543833

fc2.bias f4 [2]
00000000: f96b 583e f95f 72be
0.21134938 -0.23669423
